…
decode_head.scale_heads.3.4.conv.weight - torch.Size([128, 128, 3, 3]): 
The value is the same before and after calling `init_weights` of EncoderDecoder  
 
2025-04-02 19:27:36,732 - mmcv - INFO - 
decode_head.scale_heads.3.4.bn.weight - torch.Size([128]): 
The value is the same before and after calling `init_weights` of EncoderDecoder  
 
2025-04-02 19:27:36,732 - mmcv - INFO - 
decode_head.scale_heads.3.4.bn.bias - torch.Size([128]): 
The value is the same before and after calling `init_weights` of EncoderDecoder  
 
2025-04-02 19:27:36,737 - mmseg - INFO - EncoderDecoder(
  (backbone): MambaCNN(
    (patch_embed): Sequential(
      (0): Conv2d(3, 32, kernel_size=(3, 3), stride=(2, 2), padding=(1, 1))
      (1): SyncBatchNorm(32, eps=1e-05, momentum=0.1, affine=True, track_running_stats=True)
      (2): GELU(approximate='none')
      (3): Conv2d(32, 64, kernel_size=(3, 3), stride=(2, 2), padding=(1, 1))
      (4): SyncBatchNorm(64, eps=1e-05, momentum=0.1, affine=True, track_running_stats=True)
      (5): GELU(approximate='none')
    )
    (drop_path): DropPath()
    (pos_drop): Dropout(p=0.0, inplace=False)
    (network): ModuleList(
      (0): ModuleList(
        (0): FFN(
          (mlp): Mlp(
            (fc1): Conv2d(64, 256, kernel_size=(1, 1), stride=(1, 1))
            (act): GELU(approximate='none')
            (fc2): Conv2d(256, 64, kernel_size=(1, 1), stride=(1, 1))
            (drop): Dropout(p=0.0, inplace=False)
            (mid): Conv2d(256, 256, kernel_size=(3, 3), stride=(1, 1), padding=(1, 1), groups=256)
            (mid_norm): SyncBatchNorm(256, eps=1e-05, momentum=0.1, affine=True, track_running_stats=True)
            (norm1): SyncBatchNorm(256, eps=1e-05, momentum=0.1, affine=True, track_running_stats=True)
            (norm2): SyncBatchNorm(64, eps=1e-05, momentum=0.1, affine=True, track_running_stats=True)
          )
          (drop_path): Identity()
        )
        (1-3): 3 x FFN(
          (mlp): Mlp(
            (fc1): Conv2d(64, 256, kernel_size=(1, 1), stride=(1, 1))
            (act): GELU(approximate='none')
            (fc2): Conv2d(256, 64, kernel_size=(1, 1), stride=(1, 1))
            (drop): Dropout(p=0.0, inplace=False)
            (mid): Conv2d(256, 256, kernel_size=(3, 3), stride=(1, 1), padding=(1, 1), groups=256)
            (mid_norm): SyncBatchNorm(256, eps=1e-05, momentum=0.1, affine=True, track_running_stats=True)
            (norm1): SyncBatchNorm(256, eps=1e-05, momentum=0.1, affine=True, track_running_stats=True)
            (norm2): SyncBatchNorm(64, eps=1e-05, momentum=0.1, affine=True, track_running_stats=True)
          )
          (drop_path): DropPath()
        )
      )
      (1): Embedding(
        (proj): Conv2d(64, 128, kernel_size=(3, 3), stride=(2, 2), padding=(1, 1))
        (norm): SyncBatchNorm(128, eps=1e-05, momentum=0.1, affine=True, track_running_stats=True)
      )
      (2): ModuleList(
        (0-3): 4 x FFN(
          (mlp): Mlp(
            (fc1): Conv2d(128, 512, kernel_size=(1, 1), stride=(1, 1))
            (act): GELU(approximate='none')
            (fc2): Conv2d(512, 128, kernel_size=(1, 1), stride=(1, 1))
            (drop): Dropout(p=0.0, inplace=False)
            (mid): Conv2d(512, 512, kernel_size=(3, 3), stride=(1, 1), padding=(1, 1), groups=512)
            (mid_norm): SyncBatchNorm(512, eps=1e-05, momentum=0.1, affine=True, track_running_stats=True)
            (norm1): SyncBatchNorm(512, eps=1e-05, momentum=0.1, affine=True, track_running_stats=True)
            (norm2): SyncBatchNorm(128, eps=1e-05, momentum=0.1, affine=True, track_running_stats=True)
          )
          (drop_path): DropPath()
        )
      )
      (3): Embedding(
        (proj): Conv2d(128, 320, kernel_size=(3, 3), stride=(2, 2), padding=(1, 1))
        (norm): SyncBatchNorm(320, eps=1e-05, momentum=0.1, affine=True, track_running_stats=True)
      )
      (4): ModuleList(
        (0-11): 12 x FFN(
          (mlp): Mlp(
            (fc1): Conv2d(320, 1280, kernel_size=(1, 1), stride=(1, 1))
            (act): GELU(approximate='none')
            (fc2): Conv2d(1280, 320, kernel_size=(1, 1), stride=(1, 1))
            (drop): Dropout(p=0.0, inplace=False)
            (mid): Conv2d(1280, 1280, kernel_size=(3, 3), stride=(1, 1), padding=(1, 1), groups=1280)
            (mid_norm): SyncBatchNorm(1280, eps=1e-05, momentum=0.1, affine=True, track_running_stats=True)
            (norm1): SyncBatchNorm(1280, eps=1e-05, momentum=0.1, affine=True, track_running_stats=True)
            (norm2): SyncBatchNorm(320, eps=1e-05, momentum=0.1, affine=True, track_running_stats=True)
          )
          (drop_path): DropPath()
        )
      )
      (5): Embedding(
        (proj): Conv2d(320, 512, kernel_size=(3, 3), stride=(2, 2), padding=(1, 1))
        (norm): SyncBatchNorm(512, eps=1e-05, momentum=0.1, affine=True, track_running_stats=True)
      )
      (6): ModuleList(
        (0-1): 2 x FFN(
          (mlp): Mlp(
            (fc1): Conv2d(512, 2048, kernel_size=(1, 1), stride=(1, 1))
            (act): GELU(approximate='none')
            (fc2): Conv2d(2048, 512, kernel_size=(1, 1), stride=(1, 1))
            (drop): Dropout(p=0.0, inplace=False)
            (mid): Conv2d(2048, 2048, kernel_size=(3, 3), stride=(1, 1), padding=(1, 1), groups=2048)
            (mid_norm): SyncBatchNorm(2048, eps=1e-05, momentum=0.1, affine=True, track_running_stats=True)
            (norm1): SyncBatchNorm(2048, eps=1e-05, momentum=0.1, affine=True, track_running_stats=True)
            (norm2): SyncBatchNorm(512, eps=1e-05, momentum=0.1, affine=True, track_running_stats=True)
          )
          (drop_path): DropPath()
        )
        (2-5): 4 x PlainMambaLayer(
          (norm): SyncBatchNorm(512, eps=1e-05, momentum=0.1, affine=True, track_running_stats=True)
          (norm2): SyncBatchNorm(512, eps=1e-05, momentum=0.1, affine=True, track_running_stats=True)
          (mamba): PlainMamba2D(
            (in_conv): Sequential(
              (0): Conv2d(512, 1024, kernel_size=(1, 1), stride=(1, 1))
              (1): SyncBatchNorm(1024, eps=1e-05, momentum=0.1, affine=True, track_running_stats=True)
            )
            (conv2d): Conv2d(1024, 1024, kernel_size=(7, 7), stride=(1, 1), padding=(3, 3), groups=1024)
            (act): SiLU()
            (x_proj): Linear(in_features=1024, out_features=64, bias=False)
            (dt_proj): Linear(in_features=32, out_features=1024, bias=True)
            (norm): LayerNorm((1024,), eps=1e-05, elementwise_affine=True)
            (out_conv): Sequential(
              (0): ReLU()
              (1): Conv2d(1024, 512, kernel_size=(1, 1), stride=(1, 1))
              (2): SyncBatchNorm(512, eps=1e-05, momentum=0.1, affine=True, track_running_stats=True)
            )
          )
          (drop_path): DropPath()
          (mlp): Mlp(
            (fc1): Conv2d(512, 2048, kernel_size=(1, 1), stride=(1, 1))
            (act): GELU(approximate='none')
            (fc2): Conv2d(2048, 512, kernel_size=(1, 1), stride=(1, 1))
            (drop): Dropout(p=0.0, inplace=False)
            (mid): Conv2d(2048, 2048, kernel_size=(3, 3), stride=(1, 1), padding=(1, 1), groups=2048)
            (mid_norm): SyncBatchNorm(2048, eps=1e-05, momentum=0.1, affine=True, track_running_stats=True)
            (norm1): SyncBatchNorm(2048, eps=1e-05, momentum=0.1, affine=True, track_running_stats=True)
            (norm2): SyncBatchNorm(512, eps=1e-05, momentum=0.1, affine=True, track_running_stats=True)
          )
        )
      )
    )
  )
  (neck): FPN(
    (lateral_convs): ModuleList(
      (0): ConvModule(
        (conv): Conv2d(64, 256, kernel_size=(1, 1), stride=(1, 1))
      )
      (1): ConvModule(
        (conv): Conv2d(128, 256, kernel_size=(1, 1), stride=(1, 1))
      )
      (2): ConvModule(
        (conv): Conv2d(320, 256, kernel_size=(1, 1), stride=(1, 1))
      )
      (3): ConvModule(
        (conv): Conv2d(512, 256, kernel_size=(1, 1), stride=(1, 1))
      )
    )
    (fpn_convs): ModuleList(
      (0-3): 4 x ConvModule(
        (conv): Conv2d(256, 256, kernel_size=(3, 3), stride=(1, 1), padding=(1, 1))
      )
    )
  )
  init_cfg={'type': 'Xavier', 'layer': 'Conv2d', 'distribution': 'uniform'}
  (decode_head): FPNHead(
    input_transform=multiple_select, ignore_index=255, align_corners=False
    (loss_decode): CrossEntropyLoss(avg_non_ignore=False)
    (conv_seg): Conv2d(128, 150, kernel_size=(1, 1), stride=(1, 1))
    (dropout): Dropout2d(p=0.1, inplace=False)
    (scale_heads): ModuleList(
      (0): Sequential(
        (0): ConvModule(
          (conv): Conv2d(256, 128, kernel_size=(3, 3), stride=(1, 1), padding=(1, 1), bias=False)
          (bn): SyncBatchNorm(128, eps=1e-05, momentum=0.1, affine=True, track_running_stats=True)
          (activate): ReLU(inplace=True)
        )
      )
      (1): Sequential(
        (0): ConvModule(
          (conv): Conv2d(256, 128, kernel_size=(3, 3), stride=(1, 1), padding=(1, 1), bias=False)
          (bn): SyncBatchNorm(128, eps=1e-05, momentum=0.1, affine=True, track_running_stats=True)
          (activate): ReLU(inplace=True)
        )
        (1): Upsample()
      )
      (2): Sequential(
        (0): ConvModule(
          (conv): Conv2d(256, 128, kernel_size=(3, 3), stride=(1, 1), padding=(1, 1), bias=False)
          (bn): SyncBatchNorm(128, eps=1e-05, momentum=0.1, affine=True, track_running_stats=True)
          (activate): ReLU(inplace=True)
        )
        (1): Upsample()
        (2): ConvModule(
          (conv): Conv2d(128, 128, kernel_size=(3, 3), stride=(1, 1), padding=(1, 1), bias=False)
          (bn): SyncBatchNorm(128, eps=1e-05, momentum=0.1, affine=True, track_running_stats=True)
          (activate): ReLU(inplace=True)
        )
        (3): Upsample()
      )
      (3): Sequential(
        (0): ConvModule(
          (conv): Conv2d(256, 128, kernel_size=(3, 3), stride=(1, 1), padding=(1, 1), bias=False)
          (bn): SyncBatchNorm(128, eps=1e-05, momentum=0.1, affine=True, track_running_stats=True)
          (activate): ReLU(inplace=True)
        )
        (1): Upsample()
        (2): ConvModule(
          (conv): Conv2d(128, 128, kernel_size=(3, 3), stride=(1, 1), padding=(1, 1), bias=False)
          (bn): SyncBatchNorm(128, eps=1e-05, momentum=0.1, affine=True, track_running_stats=True)
          (activate): ReLU(inplace=True)
        )
        (3): Upsample()
        (4): ConvModule(
          (conv): Conv2d(128, 128, kernel_size=(3, 3), stride=(1, 1), padding=(1, 1), bias=False)
          (bn): SyncBatchNorm(128, eps=1e-05, momentum=0.1, affine=True, track_running_stats=True)
          (activate): ReLU(inplace=True)
        )
        (5): Upsample()
      )
    )
  )
  init_cfg={'type': 'Normal', 'std': 0.01, 'override': {'name': 'conv_seg'}}
)
2025-04-02 19:27:38,736 - mmseg - INFO - Loaded 20210 images
…
